models/TaxiModel.pt (torch, 113478 bytes, 20 tensors)

embeds.0.weight f4 [24, 12]
000000 d4 31 df 3e 8c fc 05 be d9 a3 0c bf 0b a8 1b 3f
       0.43592703 -0.1308462 -0.5493751 0.6080329
000010 fe 8d 3f 3f b4 57 0b bf c4 78 b1 3f 4c 8e f7 3d
       0.7482604 -0.544307 1.386498 0.12087688
000020 77 9d 9a bf c0 6a 9d 3f b1 60 d3 3e 54 99 4e be
       -1.2079304 1.2298203 0.41284707 -0.20175678
000030 f0 49 06 3c d8 39 ae bf e0 d4 f3 3d 57 b6 2e 3f
       0.008196339 -1.3611403 0.11905837 0.6824698
000040 ba 3b 0e bf c6 f4 a9 bf bb f1 8d 3f ae 97 1d bf
       -0.55559886 -1.3277824 1.1089395 -0.6155957
000050 bb 95 33 3e 4c 0f 9b 3f f1 ce 1a bf 7c 1d 09 3f
       0.17537586 1.2114043 -0.6047202 0.53560615
000060 88 41 a0 3e 25 d0 90 bf 0b 60 ee be 27 5a b8 3e
       0.31299996 -1.1313521 -0.4655765 0.3600628
000070 33 fa 6a be 30 a7 2d bf 78 8a ac bf 7e bb 84 bf
       -0.22947006 -0.6783323 -1.3479757 -1.0369718
000080 45 6c 64 bf 55 08 a4 3e 99 63 68 bf f4 53 33 3f
       -0.89227706 0.32037607 -0.90776974 0.7004998
000090 d6 92 8e bf 15 11 a3 be 66 d1 86 bf 92 d7 af 3f
       -1.1138561 -0.3184897 -1.0532653 1.3737662
0000a0 0b ff a8 be bb 28 97 3e ce 4c e9 3e ec c7 55 3f
       -0.33007082 0.29523262 0.4556641 0.8350818
0000b0 ab 60 15 3f ef 6d bd 3d d2 a5 f7 3d b1 e5 29 be
       0.5835063 0.09249484 0.120921746 -0.16591527
0000c0 7a 9d 83 bf 00 b3 60 bf 7b a4 b4 3f ec 6a a5 bf
       -1.0282433 -0.8777313 1.4112695 -1.2923255
0000d0 54 c5 a4 be 56 c6 bd bf 3c 5d ca be 51 73 92 3f
       -0.321818 -1.4826152 -0.39524257 1.1441442
0000e0 9e c9 c8 3c bf 33 24 bf aa 34 40 3f e4 f0 ef 3e
       0.024510201 -0.6414146 0.7508036 0.46863472
0000f0 5f 5e 90 3e aa e4 54 be 2d 51 35 3f 85 1d 26 c0
       0.28197 -0.20790353 0.7082699 -2.5955517
000100 5e f0 5a be 27 2c 10 c0 55 f7 dd bf 9e c0 ce 3c
       -0.21380755 -2.2526948 -1.7341105 0.025238331
000110 69 c5 87 bf fd 11 28 3f 18 44 77 3e 97 9a 45 3f
       -1.060712 0.6565245 0.2414707 0.7718901
000120 71 1a 7c 3e 29 01 8b 3f 4b 71 1f 3f 28 e0 19 bf
       0.24619462 1.0859729 0.62282246 -0.6010766
000130 ce 45 15 bf 43 e9 1f bf 00 0d 10 3f 3d e2 23 be
       -0.5830964 -0.62465304 0.56269836 -0.16004272
000140 d5 f9 c4 3f 5f 72 a4 bf ed 56 8a bd 3e 24 9a 3f
       1.5388743 -1.2847403 -0.06754861 1.204231
000150 3b cd df 3f 59 03 bf bd a0 8a bf 3d 3c 31 8f bf
       1.7484506 -0.093268104 0.093526125 -1.11869
000160 d0 8e 3a bf 81 29 55 3d ed e4 21 3f 45 67 9b bf
       -0.72874165 0.052041534 0.6323994 -1.214089
000170 41 e1 13 bf 7c 40 79 bf 5a 17 d3 be 57 7f 8e bf
       -0.57765585 -0.9736402 -0.41228753 -1.1132611
000180 2b 47 1e bf ba a6 6a bf 3d e0 29 40 df 45 af 3f
       -0.61827344 -0.91660655 2.6543114 1.3693198
000190 4c 80 81 3c c3 e9 23 bf dc 5d fb be cf 41 57 3e
       0.015808247 -0.6402857 -0.49095047 0.21021198
0001a0 b7 26 06 3f 46 23 a3 3f d8 7f ff 3e 01 92 18 bf
       0.52402824 1.274514 0.49902225 -0.59597784
0001b0 8f e5 84 3f 68 64 d5 3d fe 92 95 3f 77 d3 9a bd
       1.0382556 0.104195416 1.1685483 -0.07559865
0001c0 11 62 9e bf 0c a6 16 3f 76 f2 97 be 19 2a 86 bf
       -1.2373677 0.5884712 -0.2967717 -1.0481597
0001d0 fd 05 6a 3f 88 bc bf 3f e5 50 a7 bf 73 77 38 3e
       0.9141539 1.497941 -1.3071562 0.18014316
0001e0 f0 9b a0 be d6 e5 c4 3f 9c 45 b0 be 0c e6 90 be
       -0.3136897 1.538264 -0.34428108 -0.28300512
0001f0 ee 61 0f 3f 59 b0 56 bf c3 68 6e bf 95 90 35 3f
       0.56008804 -0.83862835 -0.93128604 0.7092374
000200 65 b8 0a 3f 8f c0 0e bf ad 2e e2 bf e7 9c 13 bf
       0.54187614 -0.5576257 -1.7670494 -0.5766129
000210 8e b3 bb 3e d0 e0 5d 3f 4c 1f 44 bf 46 06 ea 3f
       0.36660427 0.8667116 -0.76610255 1.8283165
000220 ef c2 4d 3f 73 3b 7e 3f e2 16 67 3f ac 9e 79 bf
       0.8037557 0.9930946 0.9026929 -0.9750774
000230 5a 85 a4 bf 6f 70 fe bf 0b 48 45 bd b5 ae 1e bf
       -1.2853196 -1.9878062 -0.04816441 -0.6198533
000240 a9 16 b7 bf 8a c5 2c be ce 7e 5d 3f 8d 26 62 3f
       -1.430379 -0.1687223 0.86521614 0.88340074
000250 be 8d 22 bd ff b6 8d 3f 69 ed 79 bf a3 02 0f 40
       -0.039685957 1.1071471 -0.97627884 2.234536
000260 62 21 70 be 50 57 bf 3e b5 2c a5 3f 26 04 b5 bf
       -0.23450235 0.37371302 1.2904269 -1.4141891
000270 72 25 e2 3f 4f 18 ab 3e 98 1d 31 bf 6a aa 6e bf
       1.7667677 0.33416983 -0.6918578 -0.9322878
000280 29 85 67 bf b2 f2 01 be d7 f9 40 3e c3 e3 d8 3e
       -0.9043756 -0.12690237 0.18845306 0.42361268
000290 26 01 f9 bd 68 ed 44 bc 2a 9c d4 bf f4 61 cc bf
       -0.12158422 -0.012019493 -1.6610157 -1.5967393
0002a0 96 fe 57 3e 62 dd b2 bf 74 38 89 3f 2c 0a 72 3f
       0.2109321 -1.3973811 1.0720353 0.9454677
0002b0 20 ad dc bf 97 06 b3 bb b3 e4 af 3f ce 4f 9a be
       -1.7240334 -0.005463432 1.3741668 -0.3013901
0002c0 a3 79 8f bf b3 07 ca 3e 4a 92 8f 3f 45 6a 57 bf
       -1.1208996 0.39459 1.1216519 -0.8414653
0002d0 1c 9a 1d bd 8a a4 44 be b7 1b ea 3c 2c d2 f1 3d
       -0.03847705 -0.19203392 0.028577669 0.11807665
0002e0 cb 75 5c 3f e7 ae 7b 3f 20 94 78 bd 74 b5 f5 bf
       0.8611724 0.98313755 -0.060688138 -1.9196
0002f0 0b ab 56 3e ce fe 52 bf 69 45 d1 bf 5c 2f 47 bf
       0.20963685 -0.8242005 -1.6349307 -0.7780664
000300 b2 db b5 bf 63 5d b2 bf e8 8a 02 bf 8b a4 b2 bf
       -1.4207671 -1.3934749 -0.50993204 -1.3956465
000310 04 5c 75 bf 1a 4d 30 3d 9b 17 9a 3f 59 48 dd 3f
       -0.9584353 0.04304228 1.2038454 1.7287704
000320 e3 c5 cf bc b7 c9 6b 3e 92 e0 d8 be 80 5f be be
       -0.025362914 0.23026167 -0.42358834 -0.37182236
000330 39 2f e1 be 3b 6c 06 c0 3c cb 73 bf 03 3b a0 bf
       -0.4398134 -2.1003559 -0.95231986 -1.2518009
000340 c9 db 3f 3e fd 67 cf 3e b0 11 ca bf 85 ad 1f be
       0.18736185 0.40509024 -1.5786648 -0.15593536
000350 ed c4 42 bf ac 81 da be 64 ea a9 be b4 67 a0 3f
       -0.76081735 -0.42677057 -0.33186638 1.2531648
000360 ed 12 d9 bf e1 1e 4a bf d2 f2 03 bf ea 48 7d bf
       -1.6958901 -0.7895337 -0.5154239 -0.98939383
000370 fd e6 4c 3f 00 65 b0 be 96 20 fa 3e cf d2 0c bd
       0.8003996 -0.34452057 0.48852986 -0.03438073
000380 94 04 81 bf 31 21 f8 3d 9f dc 8d bf f2 8f 74 bf
       -1.0079522 0.12115706 -1.1082953 -0.95532143
000390 bc ad c3 bf c4 5e a6 3e cd 5f 6e bf 01 fc 82 be
       -1.5287395 0.32494175 -0.9311493 -0.2558289
0003a0 1c 13 c3 3e 66 65 f1 3d f1 79 fe 3f 96 e1 66 be
       0.38100517 0.11786918 1.9880964 -0.22546992
0003b0 00 28 ae 3f 06 71 e2 be cb 5a a9 bc a3 bb 9e 3f
       1.3605957 -0.44226855 -0.020673176 1.2401012
0003c0 e2 d6 ec bf 68 a2 1b bf 1d 40 6a bd 98 97 17 bf
       -1.8503077 -0.6079469 -0.05719005 -0.5921569
0003d0 ea 9b 65 be 44 0c 85 bc 54 25 0a bf 7a 09 24 c0
       -0.22422758 -0.0162412 -0.5396321 -2.5630784
0003e0 51 b0 f0 3e 7a 25 12 3f 6e d3 5c bf be d3 7c 3f
       0.4700952 0.57088435 -0.86260116 0.9876059
0003f0 ed 50 9f bf df dd 74 be 96 70 96 bf 0f 12 ac be
       -1.2446572 -0.23912762 -1.1753109 -0.33607528

embeds.1.weight f4 [2, 1]
000000 2a 81 15 be 1e 49 8a 3e
       -0.14600053 0.2700891

embeds.2.weight f4 [7, 4]
000000 5b 2c 66 3e 6f 47 97 3e 48 19 53 3f f6 cf e2 bf
       0.22477858 0.29546687 0.8246045 -1.7719715
000010 1c 34 d7 3e cb 69 3c bf cc 40 95 3f fb 3e c8 3e
       0.42031944 -0.7359893 1.16604 0.3911055
000020 9d 38 c3 3f 05 7e ad bf 86 08 bc bf 68 d7 e3 3e
       1.5251652 -1.3554083 -1.4690101 0.4450028
000030 31 28 28 3f 30 36 90 be a1 6e ff bf a3 af d2 bf
       0.6568633 -0.28166342 -1.9955636 -1.645985
000040 e9 5c 0c bf c4 b5 b8 be 14 6f cb 3f f0 be 0d 3f
       -0.5482927 -0.36076176 1.5893273 0.5536947
000050 84 cb cc 3f 27 2a 05 bf 0c 53 a0 bf 0e 5e b0 be
       1.5999608 -0.52017444 -1.2525344 -0.34446758
000060 02 e4 41 3f f0 66 48 bf b7 50 12 bf 40 94 fb 3d
       0.7573854 -0.7828207 -0.5715441 0.12284136

bn_cont.weight f4 [6]
000000 6a 0a 8c 3f ff 2e 80 3f 5b 7b 91 3f a5 c1 7f 3f
       1.0940678 1.0014342 1.136577 0.99904853
000010 6a 19 58 3f ce 64 8e 3f
       0.8441378 1.1124513

bn_cont.bias f4 [6]
000000 d6 5c ea bd 89 c9 aa 3d 47 27 ef bc 6e 72 92 3d
       -0.11443488 0.08339221 -0.029193534 0.07150732
000010 87 59 22 be 93 8c 2f be
       -0.15854464 -0.17143469

bn_cont.running_mean f4 [6]
000000 84 f9 93 c2 c6 ff 22 42 10 f9 93 c2 fd ff 22 42
       -73.987335 40.74978 -73.98645 40.74999
000010 77 95 ac 3f c0 00 54 40
       1.3483113 3.3125458

bn_cont.running_var f4 [6]
000000 61 de 95 3a 1d b5 2e 3a 46 ec 9e 3a f9 50 71 3a
       0.0011434072 0.0006664561 0.0012124858 0.0009205486
000010 36 9e 13 3f 4b 3e 31 41
       0.57663286 11.077708

layers.0.weight f4 [200, 23]
000000 b3 43 de bc b5 63 c5 bc 3e 76 67 3c be 13 22 3c
       -0.02713189 -0.024095396 0.014127312 0.009892402
000010 b1 5e 17 3c 93 ef 7e bc 51 56 2f bb 1c f9 08 bd
       0.009238885 -0.015560049 -0.002675433 -0.033440694
000020 d8 2c 54 bb 16 d9 b4 bc fa 47 4c bd be d5 2f 3c
       -0.0032375362 -0.02207617 -0.04987333 0.010732112
000030 9d d2 d2 3d 3f d7 b9 bb 71 0f ac bd 2e 41 92 3c
       0.102940775 -0.0056714113 -0.08401383 0.017853346
000040 01 c0 45 bd 29 1d 9e 3d 56 61 88 3d f2 88 7a 3d
       -0.048278812 0.077204056 0.0665919 0.061165757
000050 ad a8 41 be 15 74 89 bc 39 17 8d be a1 e5 cf bd
       -0.18912001 -0.016778985 -0.2755678 -0.1015122
000060 f5 8a 04 3e 58 ba 79 bd fa cc 40 3e 4b 25 a5 3d
       0.12943633 -0.060968727 0.18828192 0.08063754
000070 54 e2 45 3d 5e ae 7b ba 0f 28 c7 3d 4f 4b 1c 3e
       0.048311546 -0.0009600873 0.097244374 0.15263103
000080 00 28 bf bc 5a aa 16 be df 62 f6 bd e5 06 7f be
       -0.023334503 -0.14713421 -0.12030577 -0.24904974
000090 4c 54 91 3d 97 fc 95 bd 60 3e 3e 3d 27 5e 14 3d
       0.070961565 -0.07323568 0.046446204 0.036222603
0000a0 54 ee 61 bd 43 16 8c 3d 8e 8d 82 3d 29 0f 9a bc
       -0.055158928 0.068401836 0.06374656 -0.018806057
0000b0 ad 4f a3 3d 33 ae 6c 3e 81 3d ae bd 4b ae d9 bc
       0.07974181 0.23113327 -0.08507825 -0.026572367
0000c0 39 81 a6 3c 14 2d 19 bd 39 f8 85 bd 27 92 fa 3c
       0.02032529 -0.037396505 -0.06541485 0.030587269
0000d0 14 01 63 bd d2 c8 23 3d 45 82 de 3c ad de 03 bc
       -0.05542095 0.03998644 0.027161727 -0.0080486955
0000e0 50 61 7c 3c 7d a0 ae bd ca a0 f4 bd 32 a8 8d 3c
       0.0154040605 -0.085267045 -0.119447306 0.017292116
0000f0 eb 60 94 bd 9c 66 1e 3d 98 ee 3a 3d c0 67 35 3d
       -0.07245048 0.038672075 0.045637697 0.044288397
000100 66 28 34 bd 80 c2 39 3d ff 18 ae 3c cb 50 80 bc
       -0.04398384 0.045351505 0.021252153 -0.015663525
000110 00 36 47 3e 94 9c 5f be 27 98 93 3d b4 08 6b 3d
       0.19454193 -0.21837074 0.07206755 0.057381347
000120 3d e3 07 3e 04 b6 ab bd a7 2c 69 be 73 98 32 be
       0.13270278 -0.08384326 -0.2277094 -0.17440967
000130 70 8f 74 3d 1e c4 e6 bc ff 0c 10 be f2 75 9d 3c
       0.059707105 -0.028169688 -0.14067458 0.01922128
000140 36 fe 8a 3d 2f d2 ad bc 86 3c af bd 17 68 f3 3d
       0.06786768 -0.021218387 -0.08556466 0.11885088
000150 28 1d 21 be 58 26 16 3e 27 73 09 3e 0e 69 8f bd
       -0.15733778 0.14663064 0.13422833 -0.070024595
000160 1c fc 07 be 20 c3 69 bd 73 17 e9 3d 6f 0c 3d be
       -0.13279766 -0.05707085 0.11381426 -0.18461774
000170 7b 09 b0 bb ee 61 90 bb 27 20 ec 3b 69 68 22 3c
       -0.005372224 -0.0044062054 0.0072059813 0.009912589
000180 f3 90 32 bd dd ca ea bc 8d 1a 99 bc 2b 02 e9 3c
       -0.043595266 -0.028661186 -0.018689418 0.028443417
000190 06 77 bb 3c 54 70 9f 3c 85 4b 16 bd 7c 6e 57 3c
       0.022883903 0.019462742 -0.036693115 0.0131489
0001a0 3c d6 60 3b ba ce 4b 3c bb 8a 87 bc 2d 36 c4 3b
       0.003430738 0.012439424 -0.016545644 0.0059879036
0001b0 e7 cf 56 bc ed c4 46 3e b1 b9 cf bd b4 8c 19 be
       -0.013111091 0.19411059 -0.1014284 -0.1499508
0001c0 db ed 10 3d bc 87 90 bb 7d d0 59 3e 4c bd 14 3c
       0.035383087 -0.004410712 0.21270938 0.009078335
0001d0 f6 22 d7 bd eb 6d 0b 3e 7e 5f 51 bd ba e8 53 3e
       -0.10504715 0.13616149 -0.05111646 0.20694247
0001e0 13 b8 8a bd 88 1d 18 3e f7 29 e9 39 0d 0e 37 3d
       -0.067733906 0.14855015 0.0004447249 0.044691134
0001f0 e3 cf 30 be 21 ce 27 be e3 74 1d be ec f7 50 bd
       -0.17266802 -0.16387226 -0.1537662 -0.051017687
000200 a6 bd 17 3d 58 9f 5b bd 77 7d 6c bd dd b5 ed 3d
       0.037046097 -0.05361876 -0.05773684 0.11606953
000210 29 7d 33 be c3 dd 24 be ae b8 cc bd f2 79 2e 3e
       -0.17528214 -0.1610022 -0.09996162 0.17038706
000220 68 85 45 be 20 ee 59 bd 51 3f 02 bc a4 21 49 3d
       -0.19289172 -0.05320561 -0.007949666 0.049104348
000230 4d 6a 14 bc c3 70 1c 3c be 40 ed 3c 68 17 1b 3b
       -0.009058547 0.009548369 0.028961536 0.0023665074
000240 1f d5 7a bd 6c 59 81 3c 2d ce 63 bd 60 32 63 bc
       -0.061238404 0.01578971 -0.055616546 -0.013866991
000250 e0 a2 3d 3d 40 7f 96 bd 4f f4 28 be 2d 39 1f bc
       0.046297908 -0.0734849 -0.16499446 -0.009718222
000260 68 89 c8 bd 75 ae 18 bc a6 10 ba 3d 40 2b 41 3d
       -0.09791833 -0.009318938 0.09085207 0.047160387
000270 e7 be 5d bd ba f2 a0 bc 3d 86 19 3e 4c ef e0 bd
       -0.054137137 -0.019646991 0.14992614 -0.10983142
000280 40 03 a7 be 41 5f d9 3d 71 41 56 bc 3d ec ef 3d
       -0.32619667 0.10613871 -0.013077126 0.11714981
000290 fa 0c c4 bd 77 64 a2 3c ad 9a 79 3d 1f 69 33 3d
       -0.095727876 0.019823296 0.060938526 0.043801423
0002a0 e3 b1 c8 bd 8b df 9f 3b a6 62 21 be b8 d1 d5 3d
       -0.09799554 0.0048789433 -0.15760288 0.10440391
0002b0 0d b8 58 3d 88 93 2b be 19 37 74 bd c3 3e 15 3e
       0.0529099 -0.16755497 -0.059622858 0.14574723
0002c0 c6 81 de 3c 44 17 2f be d0 20 81 3e 2e f3 49 be
       0.02716149 -0.17098719 0.25220346 -0.19721672
0002d0 af ce fe bd 75 1b 8e bd 55 0d a9 bc c0 27 73 bb
       -0.124417655 -0.06938831 -0.02063624 -0.003710255
0002e0 a2 2a e5 bd 6a 6a 4b 3d 1d 2d 0f bd 5e d6 cb bd
       -0.11189772 0.04966203 -0.034955133 -0.09952997
0002f0 67 97 34 3e 07 82 0f be 4c 75 70 3c ca ec 14 3e
       0.1763588 -0.14014445 0.014676403 0.14543453
000300 60 69 06 3e c4 92 19 be 6e 4e 98 bc f3 5b 56 bd
       0.13126135 -0.14997393 -0.018592086 -0.052333783
000310 0b 84 fd 3d 80 47 0f be 56 36 d9 bd f7 bc 82 3e
       0.12378701 -0.13992119 -0.10606067 0.25534794
000320 f3 3f 64 3d 37 23 19 be 0b 62 87 bc b6 f4 a2 bd
       0.05572505 -0.1495484 -0.016526243 -0.07956831
000330 53 78 e6 3b af f8 64 3e 91 5d 47 bd 76 9b ba 3d
       0.0070333867 0.2236049 -0.048673216 0.09111683
000340 a6 df c1 ba 21 35 e2 3d 8c 34 21 bd fd 14 1b bd
       -0.0014791384 0.1104529 -0.039356753 -0.037861813
000350 da 3f 75 3d 22 b1 c0 3c d9 91 3b b9 8e 91 9c bd
       0.059875347 0.023521964 -0.00017888042 -0.0764495
000360 d7 6a 13 bd 06 a0 b3 bc 72 cf 62 3d b1 9e 98 3d
       -0.035990562 -0.021926891 0.055373617 0.07452143
000370 4a e6 c7 bd 78 81 ff bd 43 ea 59 3d 4a e1 42 bd
       -0.09760721 -0.12475866 0.053201925 -0.047578134
000380 5b df 30 3e 07 bb 0c be 7a 23 8a 3b fb ca d1 bb
       0.17272703 -0.1374322 0.004215655 -0.006402371
000390 b5 12 03 3d ae 5c 61 3e f8 83 b9 3d 39 3c 6a bb
       0.032000262 0.2200801 0.09058374 -0.0035741462
0003a0 58 02 0c 3e d7 8f 27 be 53 71 32 3e 60 67 02 be
       0.13672769 -0.16363464 0.17426042 -0.12734747
0003b0 4d 83 18 bd 9a e9 58 bd 05 3d cb 3d db b2 20 be
       -0.037234593 -0.052957155 0.09923748 -0.15693228
0003c0 66 15 d1 bd b4 bd 94 bd 09 fe 88 3d 32 58 e0 3d
       -0.102091596 -0.072627455 0.06689078 0.10954322
0003d0 e5 48 89 bb be 4a e9 3c 20 86 01 3e 78 a0 db bc
       -0.004189598 0.028478023 0.12648821 -0.026809916
0003e0 d4 46 6b 3e 23 d3 3d 3e ce 73 0a bd 7d a7 bf 3d
       0.22976238 0.18537574 -0.033801846 0.09358118
0003f0 00 d5 5b 3e f5 6c c3 bb 7c bf ff bb e7 1b a9 3d
       0.21467972 -0.0059639164 -0.007804809 0.08257275

layers.0.bias f4 [200]
000000 93 7c 86 3e 15 c7 3b be e7 04 94 bd 56 54 03 bd
       0.26266918 -0.18337663 -0.072274975 -0.03206285
000010 94 36 39 3d 0f 9e 43 bd f5 9b 25 3d b8 14 0a bd
       0.045218065 -0.04775816 0.040431935 -0.033711165
000020 ed c0 23 bd 01 27 eb 3b f3 dd a7 3d e0 29 97 bd
       -0.03997891 0.0071762805 0.0819663 -0.07381034
000030 07 4e 12 3e 18 5d 7c bd 55 da 71 bd 87 bb 66 3e
       0.14287578 -0.06161222 -0.05904611 0.22532474
000040 05 4c 1c bd f1 bf 71 3e d3 c9 9c 3d d6 ec 40 3d
       -0.038158435 0.23608376 0.076556824 0.047100864
000050 25 99 45 3e 89 06 88 3d 66 49 3c be 99 92 86 bd
       0.19296701 0.066418715 -0.18387374 -0.0657093
000060 1d 1a 28 be 65 04 3b 3e 38 51 88 3e b6 da a3 be
       -0.16416211 0.18263395 0.26624465 -0.320028
000070 a7 49 8c 3c 3b 38 e0 3d a4 a9 b3 bc 1e 58 31 3c
       0.017124964 0.10948225 -0.021931477 0.010824231
000080 fa a8 14 3e 82 a1 6a bd df 9c b3 3d 7f c4 d9 3c
       0.14517584 -0.057282932 0.08770155 0.026582954
000090 d0 73 a6 3d 8a 8e b1 bd 8c 7b e0 3d 90 0b 28 be
       0.08127558 -0.08669765 0.10961065 -0.1641066
0000a0 11 f7 9a bd 1c 37 ce 3d 91 9f 30 be ef 76 4b 3e
       -0.075666554 0.10069105 -0.1724837 0.19869588
0000b0 84 86 0d 3e 2f e5 81 bd df 9e 80 be d1 9f f4 bd
       0.13820845 -0.063425414 -0.2512121 -0.11944545
0000c0 94 49 d0 3d 2a ed 9e 3e 4d a0 97 bd ea c8 2c bd
       0.10170284 0.31040317 -0.07403622 -0.042183794
0000d0 6d 1c 00 be 85 f6 0d 3e 23 1a 83 3e 47 d0 7c be
       -0.12510844 0.13863571 0.25605878 -0.24688827
0000e0 fd 91 10 bd c8 fc 69 bc 66 76 ad bd 34 b1 05 3e
       -0.035295475 -0.014281459 -0.08469848 0.13055879
0000f0 09 48 13 3e 33 ba 08 bc aa ba 09 be b1 d1 c6 3d
       0.14382948 -0.008345175 -0.13450113 0.09707964
000100 62 66 24 3e b7 86 3d be f8 11 0d 3e 04 ad 47 be
       0.16054681 -0.18508421 0.13776386 -0.19499594
000110 15 01 5e 3e 00 ca 30 be 66 13 95 3d 51 6c 75 be
       0.216801 -0.17264557 0.072790906 -0.239671
000120 3e a3 e1 3c 33 2a a0 bd 70 44 3c be ab 57 3f 3e
       0.02754366 -0.07820549 -0.18385482 0.18685786
000130 91 37 c0 bd e3 63 11 be 7f 12 02 3e 7c a3 3d 3e
       -0.093855985 -0.1419826 0.12702368 0.18519396
000140 49 07 5a 3d f7 f8 17 bc 72 b2 a0 3d 19 c2 53 bd
       0.053229604 -0.009275666 0.07846536 -0.051698778
000150 c3 81 91 3d 0e 1b 5e bd f2 bb 79 3b e7 f2 81 bc
       0.07104828 -0.05422502 0.003810641 -0.015862895
000160 15 4d cf bd 2e b1 98 3e d7 ff 81 3c ab e9 1c be
       -0.10122124 0.29822677 0.015869064 -0.15323512
000170 8b 04 27 3e 94 dd 81 bd ee 67 93 3d 2d 28 97 3c
       0.16310327 -0.06341091 0.071975574 0.018451774
000180 0b 0e 96 3e 83 6c c5 bc 6f b0 00 3e 2b 05 23 be
       0.2930759 -0.024099594 0.12567304 -0.1591994
000190 4f 22 61 3d 6a 69 d0 3d 00 f5 3f 3e 87 75 42 3c
       0.05496436 0.10176356 0.18745804 0.011868841
0001a0 17 72 ed 3d 92 97 be 3c 2b db 92 3e 27 9d d8 3d
       0.115940265 0.023265634 0.28682837 0.105768494
0001b0 d4 7d b5 bd 74 4b d0 3b e1 aa 59 3e 47 cf a8 3d
       -0.088618904 0.006356651 0.21256591 0.0824266
0001c0 35 55 20 3d 8c c3 2f bc 4e cc 6a 3e a7 0a 16 3d
       0.03914376 -0.010727774 0.22929499 0.036631253
0001d0 ea 29 9b bc a7 73 5f 3d 97 c3 93 bb d4 4d a9 bd
       -0.018940885 0.054553654 -0.0045094 -0.08266798
0001e0 14 3d c9 bc 76 09 37 bd 1e f7 67 be ad 6b c8 3c
       -0.024565257 -0.044686757 -0.22652861 0.024465406
0001f0 ff a2 b8 3d c0 66 79 be ac 80 2a bd 17 cf 81 3d
       0.09015464 -0.24355602 -0.041626617 0.063383274
000200 01 36 4e bc 8e 0d 39 3e a0 f9 ee 3d 86 69 5f 3d
       -0.012586118 0.18071577 0.11668706 0.054543994
000210 77 e4 1e 3e 03 9c 89 3d 2b bd c2 bd f1 42 97 3e
       0.1551684 0.0671921 -0.09508737 0.2954326
000220 c1 b2 8d 3d bc 77 39 be e2 e8 ab 3e 41 9d a7 bc
       0.0691886 -0.18112081 0.33576113 -0.020460727
000230 d7 4b a7 3e 2a d4 90 bd c3 d8 63 bd c8 83 7d 3e
       0.3267505 -0.07071717 -0.055626642 0.24757302
000240 e2 7a d6 bd 8e ed a5 3d 7c fd 7d 3e fa 42 15 3d
       -0.10472657 0.081019506 0.24803728 0.036440827
000250 c4 41 fb 3b 91 6d 8c 3d 74 d1 60 3e 3a d4 6f bc
       0.007667752 0.06856836 0.219549 -0.014638001
000260 ae cf a6 bc 2b 68 53 bd c4 9e da 3c 0d 6e 41 3d
       -0.020362701 -0.051613014 0.026687033 0.047224093
000270 f5 72 20 bd 8a bb e9 3d cf 5a 19 3c 53 d1 75 3d
       -0.03917213 0.11412723 0.009360029 0.06001408
000280 f2 20 00 3e 82 e8 2b 3e 98 20 ac be 8b 13 e9 3d
       0.12512568 0.16787913 -0.33618617 0.11380681
000290 68 9b fb bd 81 9d a5 be 04 01 12 3e 36 cb 84 bb
       -0.12285501 -0.32346728 0.142582 -0.004052545
0002a0 17 a9 3d 3e 97 1a ae be e6 28 b6 bd c8 cb 8a 3d
       0.18521534 -0.3400466 -0.088945195 0.067771494
0002b0 97 4b 6e 3e 77 ad ac be 64 6d 0f 3e 57 df 9d bb
       0.23271023 -0.33726093 0.14006573 -0.004817884
0002c0 9e 5a ab bd 19 fb 9b 3e c9 87 ee bd 01 34 09 be
       -0.08366893 0.3046501 -0.11646993 -0.13398744
0002d0 7f e6 1e bd b1 c6 db bd 96 5f 27 3e a5 cd a7 3d
       -0.038794037 -0.10731257 0.16345057 0.081935205
0002e0 8f fa c5 bb 81 0b 82 bd 10 69 db 3d 8b 34 52 3d
       -0.006041832 -0.063498504 0.107133985 0.05131964
0002f0 62 fb 71 3d 93 fe ae bd 52 ff b9 be 56 06 5a 3e
       0.059077628 -0.0854465 -0.36327606 0.2129148
000300 22 b1 02 be 13 fe dc bb 22 5a 1e 3e b3 6e 82 3e
       -0.12762883 -0.006744155 0.1546407 0.25475082
000310 4e 87 ec bd e0 67 e2 bd 91 2a 6a 3e f5 6e 87 3e
       -0.11549245 -0.11054969 0.228678 0.2645184

layers.2.weight f4 [200]
000000 ee 1a 7f 3f 17 f2 7a 3f 5e 99 6f 3f a6 3f 78 3f
       0.99650466 0.9802565 0.93593395 0.9697212
000010 71 20 83 3f bd 6f 7c 3f 18 22 7e 3f 0f 62 7e 3f
       1.0244275 0.98608 0.9927077 0.99368376
000020 39 53 7b 3f e6 7d 81 3f 12 ac 76 3f 77 3f 74 3f
       0.9817386 1.0116546 0.9635631 0.9540934
000030 b3 6f 7a 3f 29 b8 86 3f 81 9e 84 3f 1f b8 80 3f
       0.9782669 1.0524951 1.0360872 1.0056189
000040 48 3d 7e 3f 58 e2 83 3f 89 1b 7c 3f d8 fb 80 3f
       0.9931226 1.030345 0.98479515 1.0076857
000050 30 80 7b 3f 2b 23 81 3f b0 e7 75 3f 93 ea 81 3f
       0.98242474 1.0088857 0.9605665 1.0149711
000060 e2 89 77 3f 22 15 7f 3f a4 89 84 3f 56 04 80 3f
       0.9669477 0.9964162 1.0354505 1.0001323
000070 a9 33 7e 3f b2 90 85 3f 99 25 75 3f 64 a5 77 3f
       0.9929758 1.0434783 0.95760494 0.9673674
000080 65 41 7e 3f f3 a6 77 3f 02 4f 81 3f 0e 76 87 3f
       0.99318534 0.9673912 1.0102236 1.0582902
000090 5d bd 81 3f 79 f3 7e 3f ae 21 81 3f 78 85 7a 3f
       1.0135914 0.9959026 1.0088403 0.9785991
0000a0 d0 e0 7e 3f 68 04 80 3f 20 54 7e 3f 55 6b 7b 3f
       0.99561787 1.0001345 0.99347115 0.9821065
0000b0 81 6b 7b 3f 7f 07 6b 3f a2 b3 6b 3f 69 93 79 3f
       0.9821091 0.91808313 0.9207097 0.97490555
0000c0 72 8a 78 3f 36 bc 72 3f 0d 81 87 3f cc 00 80 3f
       0.9708625 0.9481844 1.0586258 1.0000243
0000d0 d5 69 76 3f 4b 9f 80 3f 50 cc 80 3f b1 d3 71 3f
       0.96255237 1.0048612 1.0062351 0.9446364
0000e0 7b 36 7a 3f 39 2b 80 3f 4c 01 73 3f 08 89 81 3f
       0.9773938 1.001319 0.94923854 1.0119944
0000f0 86 2e 81 3f da 7b 76 3f 52 6d 76 3f cf 98 83 3f
       1.0092323 0.9628273 0.9626056 1.0281008
000100 9d 39 81 3f 12 23 80 3f 0c c9 72 3f 03 75 7e 3f
       1.0095707 1.0010703 0.94838023 0.99397296
000110 76 27 72 3f c2 82 80 3f 83 b2 76 3f 74 55 85 3f
       0.9459146 1.0039904 0.9636614 1.0416703
000120 ed 91 79 3f 8c d1 81 3f 20 eb 7a 3f 6d 4a 82 3f
       0.9748829 1.0142074 0.9801502 1.0178963
000130 1c 01 80 3f 5c 24 82 3f c1 44 7c 3f 3c c6 75 3f
       1.0000339 1.0167346 0.9854241 0.96005607
000140 39 13 7f 3f 9c d5 83 3f 17 47 82 3f 7f 5f 7f 3f
       0.99638706 1.0299563 1.0177945 0.9975509
000150 2b 3f 7a 3f df e1 8d 3f 8a 44 7e 3f d4 31 80 3f
       0.97752637 1.1084555 0.9932333 1.0015206
000160 f1 a6 73 3f ec 83 81 3f 06 aa 7b 3f 8e 37 7c 3f
       0.9517661 1.0118384 0.9830631 0.9852227
000170 1a 82 7b 3f dc a1 80 3f 43 2a 83 3f 05 d0 74 3f
       0.98245394 1.0049396 1.0247272 0.9562991
000180 0a ab 7b 3f f4 62 77 3f 71 af 81 3f 42 4c 7b 3f
       0.9830786 0.96635365 1.0131665 0.98163235
000190 51 b0 81 3f 68 dc 7c 3f b0 9d 83 3f 85 18 7c 3f
       1.0131932 0.98773813 1.0282497 0.98474914
0001a0 b6 bd 80 3f fb 62 81 3f 90 f1 7d 3f c6 9e 7e 3f
       1.0057895 1.0108331 0.9919672 0.9946102
0001b0 38 3e 7c 3f 48 26 7f 3f 2b 93 7d 3f 88 f7 80 3f
       0.9853244 0.9966779 0.99052685 1.007554
0001c0 6b ae 83 3f fb ac 83 3f a3 1d 83 3f ef 8f 80 3f
       1.0287603 1.0287164 1.024342 1.0043925
0001d0 39 fe 7c 3f 32 f8 80 3f 0d 1a 76 3f b1 78 80 3f
       0.98825413 1.0075743 0.961335 1.0036832
0001e0 9c 72 79 3f ca eb 73 3f 7f 2e 80 3f fd 86 7c 3f
       0.97440505 0.9528166 1.001419 0.98643476
0001f0 90 2d 7c 3f 1d 95 83 3f d7 1c 77 3f 13 05 80 3f
       0.9850702 1.0279881 0.9652838 1.0001549
000200 40 1b 7c 3f 28 88 84 3f 4a d4 81 3f 7c 82 77 3f
       0.9847908 1.0354052 1.014291 0.9668348
000210 34 9f 7f 3f 78 71 74 3f 33 97 75 3f 59 13 84 3f
       0.998523 0.9548564 0.95933837 1.0318404
000220 7d af 77 3f dc 3f 80 3f 2c b5 83 3f 6b 3d 6e 3f
       0.9675215 1.0019488 1.0289664 0.93062466
000230 de 65 80 3f 50 88 80 3f d4 d4 72 3f 85 51 80 3f
       1.0031087 1.0041599 0.94856 1.0024878
000240 75 f3 7c 3f 7c 0b 76 3f 37 9b 80 3f 4c b4 63 3f
       0.98808986 0.96111274 1.0047368 0.88946986
000250 ec 75 7a 3f 15 f9 73 3f e2 33 81 3f 6e b1 76 3f
       0.97836185 0.95301944 1.0093958 0.96364486
000260 33 f5 84 3f 8c 60 82 3f dc f9 82 3f 25 ff 77 3f
       1.0387329 1.0185714 1.0232501 0.96873695
000270 03 ca 80 3f 89 2d 7f 3f 53 2a 80 3f b2 82 7f 3f
       1.0061649 0.99678856 1.0012916 0.998088
000280 94 fb 7d 3f 68 7a 7e 3f 93 6d 7e 3f 93 2e 7f 3f
       0.99212 0.9940553 0.99385947 0.9968044
000290 0d 55 7c 3f 92 7e 7f 3f 5c 5e 7a 3f 69 8e 75 3f
       0.9856728 0.99802506 0.9780023 0.95920426
0002a0 3b 9e 7c 3f 7f 61 80 3f a2 f7 8b 3f 8b 18 7f 3f
       0.9867894 1.0029753 1.0934947 0.99646825
0002b0 ab 4c 7e 3f 8c 3c 7a 3f 3f f3 7c 3f a0 12 80 3f
       0.99335736 0.9774864 0.98808664 1.0005684
0002c0 c6 1c 87 3f fe e2 82 3f 28 25 86 3f f0 9b 77 3f
       1.0555656 1.0225523 1.0480089 0.96722317
0002d0 68 f8 7a 3f d0 b4 7a 3f 6c e2 7b 3f 96 03 7e 3f
       0.9803529 0.9793215 0.9839237 0.9922422
0002e0 6f 4a 7f 3f b8 e3 80 3f 36 dc 82 3f d2 bb 7e 3f
       0.9972295 1.0069494 1.0223453 0.9950534
0002f0 8c 32 7c 3f 80 b0 7a 3f b9 5c 7c 3f 5b 37 7e 3f
       0.9851463 0.9792557 0.98578984 0.99303216
000300 59 8c 7b 3f 0e 49 82 3f 9c 68 7d 3f 7f 41 7c 3f
       0.9826103 1.0178545 0.98987746 0.9853744
000310 08 fd 7f 3f 6d 25 85 3f fc a8 80 3f 99 00 77 3f
       0.9999547 1.0402046 1.005157 0.96485287

layers.2.bias f4 [200]
000000 83 30 b0 3d 34 44 20 bd 10 9a 88 bd 9e c3 83 3d
       0.08603003 -0.039127544 -0.0667001 0.064337954
000010 e7 34 60 bc 7b 2d 91 3d 43 d9 65 3d 78 37 79 bd
       -0.013684488 0.07088753 0.0561154 -0.060843915
000020 4f 17 83 3c 16 dd 7b bd 9b c8 8b bd 29 b1 92 bd
       0.016002325 -0.06149014 -0.06825372 -0.07162697
000030 7f 67 63 bd e5 f0 d3 3c b7 62 8a 3d bc a3 d9 3d
       -0.055518623 0.025871703 0.067571096 0.10626933
000040 a0 ac 92 3d 83 da af 3d 39 c7 f4 bb 9b 0f 38 3d
       0.07161832 0.085866 -0.0074700383 0.044936758
000050 55 5b 5a 3d 86 81 b8 3c 3a f5 82 bd 1a 34 4e bd
       0.053309757 0.0225227 -0.063944295 -0.050342657
000060 49 9c 85 bd c4 4d eb 3c fe eb 9b 3d a2 ba 3d bb
       -0.0652395 0.028723605 0.07613371 -0.0028950353
000070 85 12 83 3d 3d 6f d4 bc 12 06 d4 bc 05 45 1c bd
       0.06400017 -0.025931949 -0.0258818 -0.03815176
000080 2d 33 6a bd 2f a4 ce bd 8a d2 83 3d cb f0 80 3d
       -0.05717771 -0.10089909 0.064366415 0.062959276
000090 5a b5 a8 3d 26 7f 5b bd 02 32 f5 3c 80 7d ff bc
       0.08237715 -0.053588055 0.029931072 -0.031187773
0000a0 dc 78 21 bc 72 2f b9 3c f1 91 cf bc cd 28 bb 3c
       -0.009855475 0.022605632 -0.025338145 0.022846604
0000b0 f2 87 02 3c 61 0a 6e bd dc a6 72 bd 8d 74 7e 3d
       0.007966982 -0.058115367 -0.05924116 0.06212287
0000c0 e0 f4 07 bd 3a 28 59 3d 62 a9 60 3d cf d9 8f 3d
       -0.033192515 0.05301688 0.054849036 0.070239656
0000d0 3c b5 b2 bd 15 be 7f 3d d4 23 04 3d 89 2e e2 bc
       -0.08725974 0.062437136 0.03226073 -0.02761008
0000e0 6f 3f b5 3d d5 a0 2a bd d5 ba 52 bd 32 67 77 3d
       0.088499896 -0.041657288 -0.05144771 0.06040115
0000f0 4a d2 7d 3d 29 43 e0 3c 32 3e 70 3d 75 f1 8f bc
       0.061968125 0.027375774 0.058653064 -0.01757119
000100 27 ac 81 3d ab ac 94 bd e9 69 f7 bc d4 34 97 bd
       0.063316636 -0.07259496 -0.03020187 -0.07383123
000110 84 29 62 bd d2 66 8c bd 40 ef 95 bd 4f bd 74 bd
       -0.055215374 -0.06855549 -0.07321024 -0.05975085
000120 59 fb 44 bd 15 91 b4 3d 41 c7 4a bd ec 19 7d 3d
       -0.048091266 0.08816735 -0.04950643 0.0617923
000130 0f a5 99 bd 99 ad 7f bd 4f d9 67 bd bd 5a 4c bd
       -0.075021856 -0.062421415 -0.056603726 -0.049891222
000140 7e c5 73 bd fe 1b b6 bd 01 30 9b 3d 11 91 7b bd
       -0.059514515 -0.08892058 0.075775154 -0.061417643
000150 12 34 73 3d 4e 64 2e 3e c7 fc e7 3c bc 71 ea 3d
       0.05937583 0.1703045 0.028318776 0.11447474
000160 46 e6 62 bd 5d 57 b1 3d 73 28 59 bd 2c 92 b1 bd
       -0.055395387 0.08659241 -0.05301709 -0.08670458
000170 ee 27 31 3b 97 dd 86 3d 9f 3e 9c 3d e4 fa 08 be
       0.0027031857 0.06585234 0.076291315 -0.13376957
000180 3a 91 91 3d a2 59 87 bd c1 01 89 3d 95 72 09 bd
       0.07107778 -0.06608893 0.06689788 -0.03355654
000190 89 7c 87 bd 07 5d 9c bd 78 d7 65 bd b4 41 30 bd
       -0.0661555 -0.07634931 -0.05611369 -0.04303141
0001a0 e8 c2 37 3d 05 c7 8e 3d 70 5d b4 3d fa 01 41 bd
       0.04486361 0.06971554 0.08806884 -0.047121026
0001b0 3e 95 5c bd d0 f2 7b bd e6 6d d7 3c 01 7e 64 bd
       -0.053853266 -0.06151086 0.02629752 -0.05578423
0001c0 72 3a 4b 3d ae b2 85 3d cc a3 87 3d 00 98 29 3d
       0.049616285 0.06528221 0.06623039 0.041404724
0001d0 ef 45 7d bc 65 24 50 3d 0d fd 57 bd 00 d9 25 3d
       -0.015458568 0.05081596 -0.052731562 0.04049015
0001e0 66 f2 fe bc 48 fb 34 bd 58 a2 b2 bd 5c 82 83 bd
       -0.031121444 -0.044184953 -0.08722371 -0.064213485
0001f0 7a ef 83 bd af 8b ef bc 62 09 6f bd 8f a8 80 3d
       -0.06442161 -0.029241411 -0.058358558 0.0628215
000200 9d 4d f7 3b b6 3b 72 3d df 95 8d bd 5c 40 07 bd
       0.007547094 0.059138976 -0.06913351 -0.033020362
000210 3e e4 9f bc dd 96 3a bd 27 f9 8e 3d ec 31 9f 3d
       -0.019518014 -0.04555403 0.06981116 0.07773194
000220 cd f9 9c bd e8 26 69 3d 76 39 b4 3d 45 d9 2a bd
       -0.07664833 0.05692187 0.08800022 -0.04171111
000230 46 ad 5f 3d 0f 1e 04 3d c7 f8 a3 bd 48 5d 8c 3d
       0.054608606 0.03225523 -0.08006435 0.068537295
000240 5a 48 85 bd b7 5b 88 bd 09 48 61 bd 76 7c 20 bd
       -0.065079406 -0.06658118 -0.05500034 -0.039181195
000250 d9 8a c6 bc 94 54 4c bd 77 3e 84 3c c5 b3 74 bd
       -0.02423613 -0.049885347 0.016143067 -0.059741754
000260 2e c8 17 3d 57 e0 4b 3d 8d 93 82 3d 6d 23 5d bd
       0.03705614 0.049774494 0.06375799 -0.053988863
000270 00 bd 7c bd 71 22 96 3d a8 b6 a0 3d 02 12 71 bd
       -0.061703682 0.07330788 0.07847339 -0.058855064
000280 ad 9a 88 bd 6f a6 83 3d 6a 5d 38 bc c0 f8 73 3d
       -0.06670127 0.06428229 -0.01125274 0.0595634
000290 a7 17 ae 3d e1 54 9e bd bf 48 05 bc 7a 9c 47 bd
       0.08500605 -0.07731033 -0.00813502 -0.048733212
0002a0 e2 a5 86 3d 0c 2f 1e 3c 6d a6 4c bd 33 95 84 bd
       0.065746084 0.009654772 -0.049963403 -0.0647377
0002b0 1b 6d 78 bd 54 ef 9e bd 02 e4 2a 3a ed 3e 87 3d
       -0.060650926 -0.07760492 0.0006518961 0.06603799
0002c0 91 11 8f 3d 22 95 8a 3d 66 f4 54 3d 14 ae 7e bd
       0.069857724 0.06766726 0.05199089 -0.062177733
0002d0 9b a2 14 bd a1 23 3a bd 68 2b a3 bc 61 e5 91 3d
       -0.036287885 -0.045444135 -0.019918159 0.07123829
0002e0 dd e2 7b bd 94 e3 6d 3d 26 94 95 3d a6 53 2d 3d
       -0.06149565 0.058078364 0.07303648 0.0423161
0002f0 2a 37 6c 3d a5 97 04 3e b7 99 1e bd 07 ac 5f bc
       0.057669796 0.12948473 -0.038720813 -0.013651854
000300 fc 7e 32 bd 1d 53 54 3d 2b 5b 2b bd fd 8f b2 3d
       -0.043578133 0.051837076 -0.04183499 0.0871887
000310 16 4d 8b 3d 7d 53 76 3d ad ba 8b 3d 03 b3 9b 3d
       0.06801812 0.060138214 0.06822715 0.07602503

layers.2.running_mean f4 [200]
000000 0f 2e ea 3e 91 ad 16 3e 2e da 01 3e a5 f1 4c 3e
       0.45738265 0.14714648 0.12680885 0.20014055
000010 b1 a5 e4 3d 9e 39 8a 3e df 1e 71 3e f7 69 1b 3e
       0.11164416 0.26997083 0.23546933 0.15177141
000020 1c 05 72 3e 4d 4f 1f 3e 4d b8 c4 3e eb 6c 37 3e
       0.23634762 0.15557595 0.3842186 0.17912643
000030 64 b5 d8 3e 3f 04 55 3d ce 48 17 3e 31 9e a3 3e
       0.4232589 0.052006003 0.14773867 0.31956628
000040 b7 e7 02 3e dc bb b8 3e c1 fa 43 3e cb eb 2f 3e
       0.12783705 0.36080825 0.19138624 0.17179792
000050 58 38 be 3e 9e cf 8b 3e 6f 09 15 3d cb ce ba 3d
       0.37152362 0.27306837 0.03638595 0.09121474
000060 84 7d 76 3e ff 39 ec 3e cb c3 ab 3e ad d6 35 3d
       0.24071318 0.46137998 0.33547816 0.044394184
000070 9d 19 88 3e 32 b4 09 3f 58 30 54 3e 02 b8 2c 3e
       0.2658204 0.5379058 0.20721567 0.16867068
000080 07 62 b0 3e 2b 18 aa 3e 5e 1d d8 3e da a1 e9 3d
       0.3444979 0.33221564 0.42209905 0.11407824
000090 93 98 aa 3e c4 84 ca 3d be 1c 56 3e 39 31 63 3d
       0.3331953 0.09888604 0.20909402 0.055466864
0000a0 4f df d2 3d 22 8d 53 3e 85 d5 2a 3e 0a af 9f 3e
       0.10296499 0.20659307 0.16683014 0.31188232
0000b0 b5 66 25 3e 75 39 1e 3e 9c de e0 3d d4 eb 84 3e
       0.16152461 0.15451606 0.10979959 0.25961173
0000c0 74 fd a6 3e a2 dd f2 3e 80 ef b6 3d 83 6b 06 3e
       0.32615244 0.47434717 0.089324 0.1312695
0000d0 6d 01 cd 3d 0f 82 ae 3e df fc 59 3e 92 5d 93 3d
       0.100100376 0.34083602 0.21287869 0.071955815
0000e0 6e b5 53 3e 9b 63 c6 3e eb 21 01 3e f5 69 8b 3e
       0.20674679 0.38747868 0.12610595 0.27229276
0000f0 a1 d3 c9 3e e3 5c 90 3e 42 a3 46 3e 56 6a 70 3e
       0.39419273 0.28195867 0.19398215 0.23478064
000100 fa 99 bf 3e 59 c2 0e 3e 18 32 32 3e 1a 84 fe 3d
       0.37422162 0.13941325 0.17401922 0.1242754
000110 8e aa b7 3e db c1 b8 3d 7b 38 3d 3e 5d c3 09 3d
       0.3587231 0.0902135 0.18478577 0.03363358
000120 2a 7e 96 3e 3d be fa 3d f5 03 07 3d 80 17 b2 3e
       0.2939313 0.12243316 0.032962758 0.34783554
000130 1b ca b5 3d 9d 7a 9b 3d 9a d6 f1 3e 80 11 30 3e
       0.08876439 0.07591746 0.4723404 0.17194176
000140 a2 db 0f 3e 79 b5 9b 3e cd a6 d1 3e 95 c3 a6 3d
       0.14048627 0.3041189 0.4094757 0.08142773
000150 be 54 b2 3e 2b 07 ad 3d 56 b2 22 3e 14 d4 23 3e
       0.34830278 0.08448633 0.15888342 0.1599887
000160 5a 4a af 3d b3 2d cf 3e 1d 6b 47 3e ef c8 f4 3d
       0.08559103 0.40464553 0.19474454 0.119523875
000170 30 42 fa 3e 7d 2a 3c 3e 0c c1 9d 3e e4 41 a2 3e
       0.48878622 0.18375583 0.30811346 0.31690896
000180 ff c7 01 3f be e3 57 3e 41 d6 9c 3e 56 94 e9 3d
       0.50695795 0.2108297 0.30632213 0.11405246
000190 44 5e 92 3e c8 e0 aa 3e e8 1e 11 3e 95 ec 12 3e
       0.28587544 0.3337462 0.14171946 0.14348061
0001a0 37 33 88 3e 7c dd 98 3e b9 af d0 3e 9a 7b bb 3e
       0.26601574 0.2985648 0.40759066 0.36617738
0001b0 f3 7b 8d 3e 4a 8c 8b 3e 11 02 80 3e a2 5f 81 3e
       0.27633628 0.2725547 0.25001577 0.25268275
0001c0 8f 69 b2 3e b3 1f 96 3e c9 38 c3 3e 73 0a c6 3e
       0.3484616 0.2932106 0.3812926 0.38679847
0001d0 1a b0 18 3e 2a 34 96 3e c5 9b 3a 3e 3f 1a 4f 3e
       0.14910927 0.29336673 0.18223484 0.20224856
0001e0 3a b1 88 3d fd b3 8c 3e 11 0a ba 3d 07 0b 44 3e
       0.06674428 0.2748107 0.09083951 0.19144832
0001f0 14 e9 4b 3e a5 8b 83 3c 1e 5a 20 3e b8 43 7a 3e
       0.19913131 0.016057799 0.15659377 0.24439895
000200 36 0c 4b 3e 30 18 ad 3e cc b3 f3 3e 0d 84 b5 3d
       0.19828877 0.33807516 0.47598112 0.08863077
000210 b9 c4 d3 3e 53 f6 6c 3e c8 16 40 3e 0c cc ba 3e
       0.41361025 0.2314084 0.1875869 0.364838
000220 89 a3 86 3e 3c c3 fd 3d c8 37 fe 3e ef 77 26 3e
       0.26296642 0.123907536 0.49651933 0.16256689
000230 51 ff cb 3e 06 c3 4b 3e 62 c1 ca 3d 22 68 ff 3e
       0.39843228 0.19898614 0.09900166 0.49884135
000240 c9 3b 60 3d 6b 4b 38 3e dd 6d ac 3e 88 f5 18 3e
       0.054744516 0.1799752 0.3367757 0.14937413
000250 66 c1 73 3e 64 ef 3f 3e b3 92 ae 3e 41 c5 8e 3e
       0.23804244 0.18743664 0.34096298 0.27884868
000260 04 38 2a 3e 9a 71 c6 3e 2b 89 66 3e ad 4d 60 3e
       0.16622931 0.38758546 0.22513263 0.21904631
000270 a9 e8 05 3e a5 a3 e3 3e 85 71 95 3e eb fd 48 3e
       0.13077034 0.44460788 0.2918817 0.19628112
000280 a6 be 55 3e 67 30 8b 3e 9d 94 37 3d 23 39 87 3e
       0.20873508 0.27185366 0.044819463 0.2641078
000290 43 7c 5f 3e 9a 03 fe 3c 6f f1 14 3e c8 e2 0c 3e
       0.21824746 0.031007577 0.14545225 0.13758385
0002a0 94 c0 89 3e c5 d8 df 3c 68 08 03 3d 51 f3 9d 3e
       0.26904738 0.027325043 0.03199044 0.30849698
0002b0 54 1e 5b 3e 71 8e 88 3d 3f 56 44 3e 75 44 c0 3e
       0.21398288 0.066677935 0.19173525 0.3755223
0002c0 ac a7 c7 3d 16 98 a2 3e 50 b4 49 3e 18 2b 63 3e
       0.09748778 0.31756657 0.1969769 0.22184408
0002d0 5a cd 30 3d 45 f4 44 3e 1a 33 ac 3e b4 c9 94 3e
       0.04316459 0.19233806 0.33632737 0.29060137
0002e0 54 ab 78 3e 5f 36 31 3e 93 30 87 3e 6e ae a3 3e
       0.24284106 0.17305897 0.26404247 0.31969017
0002f0 68 2b 8d 3e 53 28 a3 3d 7e 97 1e 3d 48 97 4a 3e
       0.2757218 0.079666756 0.038718693 0.19784272
000300 2c 05 d9 3d 47 00 73 3e 04 e5 58 3e ed 5a cb 3e
       0.105966896 0.23730575 0.21181113 0.39717808
000310 54 63 63 3e ba 7e 4b 3e 6d 68 bf 3e 74 5a db 3e
       0.2220586 0.19872561 0.37384358 0.42842448

layers.2.running_var f4 [200]
000000 65 9d 6d 3d 7c 9f ad 3d 19 cf 7f 3d eb 74 d8 3d
       0.05801143 0.08477685 0.062453363 0.10569175
000010 c7 a9 cc 3d 3f 81 fb 3d d7 55 69 3d 18 1d db 3d
       0.0999332 0.12280511 0.05696663 0.106989086
000020 ec 9a 18 3e 05 8e 04 3e 7c 5e 65 3e 4f 18 e3 3d
       0.14902848 0.12944801 0.22399324 0.11088621
000030 0f d0 5a 3e 65 f2 09 3d c5 19 7b 3d 92 0f 73 3d
       0.2136843 0.03367843 0.061303873 0.05934102
000040 58 c4 1a 3d 6a d2 26 3e 57 d2 30 3e 5f 9a 8a 3d
       0.037784904 0.16291204 0.17267738 0.06767725
000050 23 89 9a 3d 3e f2 05 3e 17 cc ce 3c b4 6b a5 3d
       0.07545688 0.1308069 0.025243802 0.08077183
000060 2b 87 37 3e 78 11 55 3e 91 e8 ac 3d 06 04 50 3d
       0.17922656 0.20807445 0.08442796 0.050785087
000070 00 4b fc 3d 9f aa aa 3e aa ce 0c 3e 6d f6 96 3c
       0.123189926 0.333333 0.13750711 0.018428052
000080 26 2d 73 3e 94 bf 58 3e e4 13 58 3e 56 21 d7 3d
       0.23747692 0.21166831 0.21101338 0.10504405
000090 ea cb ce 3d 4b 47 b4 3d 03 e4 b8 3d 42 f0 3f 3d
       0.10097487 0.088026606 0.09027865 0.046859987
0000a0 3c 4d 38 3d 3b 46 90 3c 71 af be 3d 1d c3 28 3e
       0.04499553 0.017611613 0.093108065 0.1648068
0000b0 2b 8e d3 3d 4b 6f fe 3d 23 19 0e 3e 5f f6 01 3e
       0.10329851 0.12423571 0.13876776 0.1269164
0000c0 e3 3f 53 3e 1e a7 25 3e 01 5a b1 3d 6b b8 78 3d
       0.2062984 0.16177031 0.08659745 0.06072275
0000d0 38 33 72 3d aa 3b 72 3d df b8 af 3d ae 1c 87 3d
       0.059130877 0.05913893 0.08580183 0.06597267
0000e0 26 b3 82 3d c8 b1 86 3e d5 69 ab 3d 1d 87 f8 3c
       0.06381826 0.2630751 0.08369795 0.030337865
0000f0 42 b7 0a 3e 21 8f 0d 3e b7 fd cf 3d 00 45 dd 3c
       0.1354647 0.1382413 0.10155814 0.02701044
000100 70 c9 46 3e 24 68 a9 3d ae ce 8e 3d 29 68 c4 3d
       0.1941278 0.082718164 0.06973015 0.095901795
000110 63 94 19 3e 88 9e 63 3d e7 18 fc 3d 58 90 68 3c
       0.14998011 0.05557111 0.12309437 0.0141945705
000120 ba 16 49 3e be 4d d8 3c 80 cb 40 3c a3 b2 61 3d
       0.19637576 0.026404258 0.011767268 0.055102002
000130 ad f6 5d 3d f9 fd 77 3d 85 6e 93 3e 8b b4 92 3d
       0.054190326 0.06054494 0.28795257 0.07163342
000140 6e d2 c6 3d e3 80 55 3e 1b db 70 3e aa e9 7e 3d
       0.09708105 0.20849948 0.23521082 0.06223456
000150 b8 9f 1c 3e ee 49 83 3d ca 7d 4b 3d d8 d5 26 3d
       0.15295303 0.06410585 0.04968051 0.04073128
000160 98 dc 39 3d 3f 87 d8 3d cf 7b b3 3d ef 75 9d 3d
       0.04537639 0.10572671 0.08763849 0.0768851
000170 13 66 b1 3e 96 a7 52 3d 25 0e ee 3d 30 68 00 3e
       0.3464819 0.051429354 0.116237916 0.12539744
000180 cc 61 09 3e c8 5d 2b 3e b6 5b a3 3d 3a 0d 08 3e
       0.13416213 0.16734993 0.07976477 0.13286296
000190 7c de 15 3e 78 ad 23 3e 6e 4a 58 3d 64 99 aa 3d
       0.14635652 0.15984142 0.052805357 0.08330038
0001a0 bc 10 fa 3d c3 23 b7 3d 5b f9 e7 3d 16 ed 78 3e
       0.12210223 0.08942368 0.11326858 0.24309191
0001b0 8c 7a 30 3e 5b 93 82 3e 0c e3 f0 3d db 97 10 3e
       0.17234248 0.25503048 0.11762056 0.14120428
0001c0 3d d1 12 3e 57 59 24 3e b2 c1 25 3e b6 ef 42 3e
       0.1433763 0.16049705 0.1618717 0.19036755
0001d0 ca 76 fc 3d 6d c4 f2 3d c9 40 03 3e ff dc ae 3d
       0.12327345 0.118538715 0.12817682 0.085382454
0001e0 c6 f6 73 3d 2e 6f 3c 3e 54 2c 85 3d 7f af e3 3d
       0.059561513 0.18401787 0.065025955 0.111174576
0001f0 6c 22 0e 3e db c2 b2 3b 18 d2 95 3d 94 dd 8e 3d
       0.13880318 0.0054553575 0.07315463 0.069758564
000200 5a a9 c9 3d 72 03 05 3e aa d9 a3 3e f6 c9 8a 3d
       0.09846754 0.12989596 0.32002002 0.06776802
000210 50 41 82 3e d9 dc 1a 3e f1 1d d0 3d 12 16 16 3d
       0.25440454 0.15123309 0.10161961 0.03664214
000220 85 05 1a 3e 07 36 4b 3d bc b2 af 3d 0b fe 06 3e
       0.15041168 0.04961207 0.08579013 0.13182847
000230 5e 6b 25 3d 12 74 d1 3d 08 9d 88 3d 31 4b 62 3e
       0.040385596 0.10227217 0.06670576 0.22098996
000240 0c 0d fd 3c a3 9f 07 3e aa f5 7d 3e 93 34 df 3d
       0.03089001 0.1324449 0.24800745 0.108986996
000250 50 24 0e 3e eb 5a c1 3d d0 2c 26 3d 0c 4b 16 3e
       0.1388104 0.09441169 0.04057008 0.14677066
000260 c4 62 82 3d 9d 99 56 3e d6 e2 df 3d b0 b3 03 3e
       0.06366494 0.20957036 0.109319374 0.12861514
000270 18 c5 ae 3d 2c 46 b5 3d e7 32 0f 3e fc bf e0 3d
       0.085336864 0.08851275 0.13984261 0.10974118
000280 c5 4d 09 3e f2 22 af 3d e4 1b 38 3d 34 e4 dc 3d
       0.13408573 0.08551587 0.044948474 0.10785714
000290 4f ed 62 3d 1d dc b2 3c 86 17 8c 3d 5a 0c 7a 3d
       0.055402096 0.021833474 0.06840424 0.061046936
0002a0 99 19 ac 3d a4 c8 69 3c 87 9b c8 3b 6a 5f 42 3e
       0.0840332 0.014269028 0.006122056 0.1898171
0002b0 87 81 ad 3d e5 bc 41 3d 85 20 05 3e f9 e2 cb 3d
       0.08471971 0.047299284 0.13000686 0.09955401
0002c0 77 6f e3 3d 21 75 af 3d 01 9d cf 3d 5b 84 1e 3e
       0.111052446 0.085672624 0.10137368 0.15480177
0002d0 f5 2f 03 3d 12 0a cb 3d e4 a8 7b 3e ab 0e 99 3d
       0.032028157 0.0991403 0.24576145 0.07473501
0002e0 de e6 62 3e d3 8d 89 3d 56 3b c2 3d 38 90 dc 3d
       0.22158381 0.06716504 0.09483974 0.10769695
0002f0 09 00 26 3e 25 25 25 3d ba f2 29 3d 44 89 8b 3d
       0.16210951 0.040318627 0.041491248 0.06813291
000300 31 2d c2 3d c0 c1 e1 3d d4 dc e2 3d 4c e5 92 3d
       0.09481276 0.11023283 0.11077276 0.07172641
000310 2a 76 d3 3d 6a 71 89 3d 5b 49 3c 3d 59 f3 07 3e
       0.103252724 0.06711085 0.045968395 0.13276424

layers.4.weight f4 [100, 200]
000000 46 6c 20 bd 0d b1 b6 3d 89 66 95 bc 52 a7 68 3d
       -0.039165758 0.089204885 -0.01823737 0.056800194
000010 65 b2 98 3d 70 d3 54 bb 9d bf 55 bd 8b 17 ee 3c
       0.07455901 -0.003247466 -0.05218469 0.02906396
000020 cc a2 b8 bb 5e 1a 1f bd 01 20 f6 3c bb b0 15 3d
       -0.0056346413 -0.038843505 0.030044558 0.036545496
000030 5b de 81 bb 4a 3d 1c 3d c6 b8 ce bc 3f 9b d3 bd
       -0.0039632744 0.038144387 -0.025234591 -0.10332345
000040 c1 62 d4 bd 98 3f e1 bc 86 bc 49 bd cf 48 16 bd
       -0.10370398 -0.027496144 -0.049252056 -0.03669053
000050 85 fa 4a 3d ea 81 69 3c 84 13 d2 3c e0 aa 41 bc
       0.04955532 0.014252165 0.025644071 -0.011820525
000060 53 ed 73 3d 6a 11 50 bd 40 da a8 3c d5 75 1a 3d
       0.059552502 -0.050797857 0.020611882 0.03771003
000070 a2 9b 8e 3c 4b a7 b6 3d 6e 7d b1 bd 74 24 0d bd
       0.017408196 0.08918627 -0.08666502 -0.034458593
000080 50 c0 47 bd 69 03 56 3c 75 2f dd 3b 8c 5d d3 3c
       -0.048767388 0.0130623365 0.006750042 0.025801443
000090 74 a8 f2 bd 8a 93 28 3d 68 20 c3 bd 00 c2 10 3d
       -0.11848536 0.04115633 -0.095276654 0.035341263
0000a0 2f 6f fd 3d 72 4e 0c 3d 0f 59 1c 3d e0 d7 24 3d
       0.12374722 0.0342545 0.03817087 0.040244937
0000b0 17 6b 0b bc 34 91 71 3d 69 4d be bb 2f 2b 92 3c
       -0.008509419 0.058976367 -0.005807568 0.017842857
0000c0 f4 12 87 3d 64 0f 9d 3d ec 4e 70 3c b3 fa 9e 3c
       0.06595412 0.07668951 0.014667254 0.019406652
0000d0 4e ae 4b 3d 26 55 0d 3d ba a2 3e 3d db 90 a7 3c
       0.049726777 0.034505032 0.046541907 0.020454815
0000e0 5c ba f1 bd 8b 88 0a 3e 35 91 16 bd 6a 28 85 3c
       -0.11803123 0.1352865 -0.036759574 0.016254622
0000f0 db 4d 9a bd 8c e4 8e 3d c6 13 1c 3d af 89 2e 3d
       -0.07534381 0.069771856 0.038104795 0.042611774
000100 df c1 fd 3d 21 46 2e 3c 9b 43 64 3d df 6f 8a 3d
       0.123904936 0.010636837 0.055728536 0.06759619
000110 e5 a4 d7 bb d4 f5 04 3d 31 5e 11 3c 32 ab 20 be
       -0.0065809363 0.032461002 0.008872555 -0.15690306
000120 dc 03 62 bd e2 ee 37 3d c8 75 87 3d ee f2 a1 bc
       -0.05517946 0.04490555 0.06614262 -0.019769158
000130 4b 0b 64 b9 7c 76 41 3d 65 f0 f9 bc c4 2a 8e bb
       -0.00021747981 0.047232136 -0.030510137 -0.004338594
000140 c2 84 3c bd f6 e6 29 3d ba 51 c3 bd 81 c9 1f 3b
       -0.046025045 0.041480027 -0.095370725 0.002438158
000150 6a 27 4b 3d 5c b4 8c 3b 4e d4 04 bd 40 93 de bd
       0.049598135 0.0042939615 -0.032429032 -0.108679295
000160 a0 53 8c 3d a6 9c 6a bd 31 64 c8 bc 52 b3 d7 bc
       0.06851888 -0.057278298 -0.024461837 -0.026330624
000170 3a a0 95 bd de 4f 80 bc 6a 82 70 bd 00 e2 77 bb
       -0.073059514 -0.015663084 -0.058718123 -0.0037823915
000180 77 e6 38 3d 1a 79 bf 3c 34 e1 86 bd be c2 53 bd
       0.045141663 0.023373175 -0.06585923 -0.051699392
000190 c4 91 4d 3d 68 29 91 3b b3 9f f4 bb a3 d6 0c 3c
       0.05018784 0.004429985 -0.0074653267 0.008596095
0001a0 e8 1e 47 3c 12 81 73 bd 65 6f 85 bc b8 65 7e bc
       0.012153365 -0.059449263 -0.016288469 -0.015527181
0001b0 44 6a 19 b9 7a 4c 08 bd 66 35 2b 3d ce 31 16 3b
       -0.00014630804 -0.03327606 0.04179897 0.002291787
0001c0 5a 85 cf bc 42 8d db 3c 5f e0 52 3d 85 17 ad 3d
       -0.025332142 0.026800755 0.05148351 0.084517516
0001d0 6a 45 7f 3d 5b b5 eb bd b5 64 c4 3c 7c 66 e1 bd
       0.062322058 -0.115092 0.023973802 -0.110058755
0001e0 9c aa 2f bd ea e9 00 3d 0f 7e fd 3c 8b 20 8f bc
       -0.042887315 0.031473078 0.030943898 -0.017471572
0001f0 de ca ae 3c bd 7e 8c 3d 21 6a 57 3d 2d ab 5d bd
       0.021336969 0.06860111 0.052591447 -0.054118324
000200 35 5e 23 be 0a d0 f3 3c 81 a0 8a 3d 24 ff 7b 3c
       -0.15953906 0.029762287 0.06768895 0.0153806545
000210 24 91 97 bd 56 78 65 3c 0a 60 17 bd 8d 00 e3 bd
       -0.0740073 0.014005741 -0.036956824 -0.110840894
000220 2f ee e3 bc ee a2 73 bd a5 dd de bd 26 38 82 3d
       -0.027823536 -0.059481554 -0.10882119 0.06358366
000230 dc 20 14 3d c8 62 0a bd 22 9a 31 bc c8 fb cb 3d
       0.03616415 -0.03378561 -0.010839971 0.09960133
000240 ad b1 81 3d c8 82 0a bd e5 ed ac 3d 5c 8b a5 bc
       0.06332717 -0.03381613 0.08443812 -0.020208053
000250 bf 17 8b 3d 37 71 29 bc 7b 5b 85 3c 43 1b 8d 3d
       0.067916386 -0.010341934 0.016278973 0.068899654
000260 96 b7 b9 bb fd 5f b1 3b e8 ff 42 3d bf 35 db 3c
       -0.005667637 0.005413054 0.047607332 0.026759027
000270 4c f7 22 3b 37 d4 48 bc 17 cc f9 3d 4a 70 0b 3d
       0.0024866639 -0.012257627 0.1219713 0.034042634
000280 5f 54 45 bd 00 90 0d be a8 e5 9b 3d e9 82 c8 bc
       -0.048176166 -0.13824463 0.07612163 -0.024476485
000290 5c 5d 7c bd b5 6d c6 3c db 67 2d 3d 59 84 e2 bc
       -0.061612472 0.024222234 0.042335372 -0.027650999
0002a0 dd 21 8d bd cf 99 23 3d b4 9a a8 3c fc 69 5b 3d
       -0.068912245 0.039941605 0.02058158 0.05356787
0002b0 c4 6b 74 bc 2d e6 2e bd d3 fb b2 3c 17 75 8b bd
       -0.014918271 -0.04269998 0.021848595 -0.068094425
0002c0 1b e8 53 3d 8b 76 8f bc 0c 42 1b 3d 33 1a b6 3d
       0.051735025 -0.01751258 0.037904784 0.08891716
0002d0 05 98 94 bd 52 d5 e9 3c 9c 99 0e bd 6b 1d 34 bd
       -0.07255558 0.028544102 -0.034814462 -0.043973368
0002e0 9d 96 38 bd 32 9a d8 3c 2d ec f5 3b 9a c9 d0 bc
       -0.04506551 0.026440714 0.007504961 -0.025486756
0002f0 e0 34 85 bd 70 76 d1 bb f8 03 72 3c 7f 3a 03 3a
       -0.06504226 -0.0063922927 0.014771454 0.000500597
000300 da 1b 57 b8 36 fa e0 3c c6 79 8e 3b 89 51 4c bd
       -5.1285933e-05 0.02746306 0.0043480126 -0.049882445
000310 49 a1 ba 3c cf e2 67 bd 89 fe 33 bd de 59 51 3d
       0.022781985 -0.056612786 -0.043943916 0.051111095
000320 ce 67 9a bc 12 49 1a 3d f1 5c 21 3d 2e 27 52 3c
       -0.018848326 0.03766734 0.039395276 0.012826724
000330 13 54 11 3c df 1f 34 bc 61 5a c7 3b b0 91 e8 3d
       0.0088701425 -0.010993927 0.006083772 0.11355913
000340 e2 01 4a 3d ed cf b7 3c fc dd 94 3d 1d 89 2b bc
       0.0493182 0.022438014 0.07268903 -0.010469702
000350 4e b1 de 3c bb 70 66 3c bf 83 c3 3c 2d 56 b8 bd
       0.027184155 0.014064963 0.023866532 -0.09000812
000360 e0 6e af bd 96 f4 f9 3c f2 fe ba 3c 15 29 b1 bd
       -0.085660696 0.030512135 0.022826646 -0.08650414
000370 56 cd 9d bd ca 52 12 3c e7 2f 28 3d eb 34 7c bc
       -0.0770518 0.008930871 0.04106131 -0.015393476
000380 f4 1e 9a bc e5 6e e1 ba 2d 7b 9f bd 4c b3 5a 3d
       -0.018813588 -0.0017199187 -0.07787166 0.053393647
000390 aa f5 6d bd ba 03 d2 bc 5c 1f 87 3a 40 a3 4b bd
       -0.05809561 -0.025636543 0.0010309028 -0.049716234
0003a0 69 60 79 3c ff 25 78 bc 7b e7 1a bd 2b aa 9a 3c
       0.01522074 -0.015145778 -0.037818413 0.01887997
0003b0 60 f8 47 bd f4 7d 3b 3d 75 54 2a bd 76 c1 fd bc
       -0.048820853 0.045774415 -0.04158445 -0.030976038
0003c0 23 d0 0e 3d 02 2f a7 3c e1 2a c9 b9 58 b1 d4 bd
       0.034866463 0.020408157 -0.00038369655 -0.10385388
0003d0 c7 82 92 bc ba 04 98 3d a4 2e 83 3d 24 f2 6c bc
       -0.017884625 0.074227765 0.0640538 -0.014462028
0003e0 3b 19 d2 3b ef a5 f9 3b ac f8 3c bc 8e 5d 34 3b
       0.006411699 0.007618658 -0.011533897 0.0027521583
0003f0 68 e2 22 bd 1d e4 50 bd 81 b4 7b 3d 82 8f 00 bd
       -0.0397667 -0.050998796 0.06145144 -0.03138686
